siren_model_state_dict.pth (torch, 799946 bytes, 10 tensors)

net.0.linear.weight f4 [256, 2]
000000 0e d0 ef 3e e5 7e 83 3e 8d 98 b0 be ae dd f7 be
       0.4683842 0.2568275 -0.34491387 -0.48411316
000010 3c 74 9f be 7e ec 8e bd 47 41 c9 3d 6b 35 c9 3e
       -0.31143367 -0.06978701 0.09826904 0.39298567
000020 0f e6 85 3e 20 8c bb 3d f0 e5 37 3e 6a 1b af be
       0.26152083 0.09157586 0.17958808 -0.34200603
000030 06 74 09 3e 64 ac eb be 68 7a 93 3d 9a 38 68 be
       0.13423166 -0.4602996 0.072010815 -0.22677842
000040 c1 1f a9 3d 3a 3c c0 3e 74 0b ac 3e 25 17 f5 be
       0.0825801 0.3754595 0.33602488 -0.4786922
000050 4e d2 97 be 6b fa dd 3e 21 b1 00 be 91 b9 83 3e
       -0.29652637 0.43355116 -0.1256757 0.25727513
000060 ce c2 2e 3d 91 44 b7 be d8 2a 82 be 91 16 f6 3e
       0.04266625 -0.357945 -0.25423312 0.48064092
000070 73 43 2b 3e d5 15 1f 3d ec f5 03 3e f9 01 d6 be
       0.16724949 0.03883918 0.1288678 -0.4179838
000080 8d 56 03 3f b5 b9 83 be 9f 86 fd be da 45 27 3e
       0.5130394 -0.2572762 -0.4951677 0.1633524
000090 d1 80 ec be 9b 0a 83 be 00 32 ab 3e 06 6d a4 bd
       -0.4619203 -0.2559403 0.33436584 -0.08028607
0000a0 8e e6 e5 3e ed 7a c5 3e e8 38 26 bc c7 aa bc 3e
       0.44902462 0.38570347 -0.010145403 0.36849043
0000b0 47 52 c7 3e 99 fb e6 3c 6f f2 f3 be 4e 65 89 3e
       0.3892996 0.028196143 -0.476459 0.26835102
0000c0 58 58 02 bd d1 25 be 3d 0c af 84 bd 6a b6 f7 be
       -0.031822532 0.09284557 -0.064787 -0.48381358
0000d0 2a 87 f9 be 75 3e 32 bd eb 4c a4 be 89 a0 be 3e
       -0.48735934 -0.043516595 -0.32089934 0.37231854
0000e0 f8 d5 93 3e 7b 25 98 3e bc a4 c5 be 2d 57 fb be
       0.28874183 0.29716095 -0.38602245 -0.49089947
0000f0 a7 62 1f 3e 92 06 0e 3e a4 bb ec bb 76 c0 09 be
       0.15564977 0.13869694 -0.007224517 -0.13452324
000100 1e d5 63 be 8e 4b 93 be 67 93 2b 3e c9 e1 92 3e
       -0.22249267 -0.2876858 0.16755448 0.28687885
000110 93 28 3f 3d ac db da be f8 ca 89 3e 25 24 c0 3e
       0.046669554 -0.4274572 0.26912665 0.37527576
000120 da bb 5c be 36 82 fc 3e a4 56 50 bc 5e 20 b2 3c
       -0.21556035 0.49318093 -0.012715969 0.02174395
000130 90 6d bd 3e 39 83 d9 3e 1e 49 9a be 66 44 0d be
       0.36997652 0.42482927 -0.3013391 -0.13795623
000140 76 19 c0 3e d8 6f 18 3e 09 a6 56 be 54 5c 6d 3e
       0.37519425 0.14886415 -0.20961775 0.23179752
000150 9e 62 34 3d 42 c2 6a 3e 51 4f e4 be 71 07 25 3e
       0.04403936 0.22925666 -0.44591764 0.1611612
000160 1c 1b 9a be 77 10 92 be ae 19 e7 be b5 db e8 3e
       -0.30098808 -0.28528187 -0.4513678 0.45480123
000170 9c f6 7e be ed 47 b7 be e2 2a e7 be 47 5c 87 3e
       -0.24898762 -0.35797063 -0.45149904 0.2643759
000180 6f c9 df bd fb 22 fc 3e 16 eb ef bd c6 6f da 3e
       -0.10927092 0.49245438 -0.11714761 0.426634
000190 2e fa fe be a2 67 ff be bd 09 37 3e 42 39 e3 be
       -0.49800247 -0.49883753 0.17874809 -0.44379622
0001a0 ec 90 d4 be de b4 cf 3e cd cb e0 bb b4 c1 d9 3e
       -0.41516817 0.40567678 -0.0068602324 0.42530596
0001b0 96 25 a9 be 12 11 5c 3e 72 63 c9 be 54 16 bf 3e
       -0.33036488 0.21490887 -0.39333683 0.37321723
0001c0 6f 84 d9 3e 83 94 d1 be a1 38 9e 3e be a0 91 bb
       0.4248385 -0.40933618 0.3090258 -0.004444211
0001d0 ad 33 af 3b 16 d3 c0 3e 90 93 cd 3e 61 bb e6 bd
       0.0053467364 0.37661046 0.40151644 -0.112662084
0001e0 72 3e bb be c5 60 eb be 76 6b a4 3d 08 8a a9 bd
       -0.3657108 -0.45972267 0.08028309 -0.082782805
0001f0 1c 4f d8 bd c9 76 4b be 7d 5c 20 be e3 37 79 be
       -0.10561964 -0.19869532 -0.15660281 -0.24337725
000200 f8 68 1f be 2d 94 a4 be 25 f5 d6 be a0 7e 22 3e
       -0.15567386 -0.321443 -0.41983905 0.15868616
000210 b5 1d fa 3e b3 01 ec 3e e6 94 7b be bd ec 75 bd
       0.4885079 0.46095046 -0.24568519 -0.060040224
000220 26 a2 ce 3e 99 71 ec bc 92 30 09 3e b3 d2 f4 3e
       0.40358084 -0.028862761 0.13397434 0.47817
000230 4c a1 ea bd 16 77 d4 be 67 b2 74 be 2c aa a0 be
       -0.11456546 -0.41497105 -0.2389618 -0.3137983
000240 97 2a 29 3e 95 20 ab 3e 39 cc a5 3e 4a e4 b0 3e
       0.16520153 0.33423296 0.32382372 0.3454917
000250 b4 c1 00 3f 41 67 d7 be 2f 6a 58 be fd 8c 16 be
       0.5029557 -0.42070964 -0.21134256 -0.1470222
000260 23 74 77 be 1d 9f d1 be 9b 67 6a 3e 1e aa cd 3e
       -0.24165396 -0.40941706 0.22891085 0.40168852
000270 fc 32 98 3d c7 b5 01 bf ee 69 79 3e c3 cc bf be
       0.074315995 -0.50667995 0.24356815 -0.37460908
000280 14 b3 8f be cb 0e fc be 3e 37 c0 3e f3 9b 58 3e
       -0.28066313 -0.49230036 0.37542146 0.2115324
000290 8c 45 b8 3c d6 a2 3c 3e a0 ff 17 bc 26 8c f3 3e
       0.0224941 0.18421492 -0.009277254 0.47567862
0002a0 c8 c0 5a bb 36 fc af bd 91 17 f1 be 41 b4 b6 be
       -0.0033379067 -0.08593027 -0.47088292 -0.35684398
0002b0 df 96 ed 3e 5c 37 d3 3e 37 24 dc be 2b bc 54 be
       0.46404168 0.41253173 -0.4299638 -0.20774905
0002c0 dd c2 e1 3e 38 46 4c be 46 14 ab bd 38 dc e8 be
       0.4409398 -0.19948661 -0.08353476 -0.45480514
0002d0 8f 10 ff be 78 85 b8 3e 7c be 09 3e 52 df bb 3e
       -0.4981732 0.3603933 0.1345157 0.36693817
0002e0 e8 35 ea be 6a e4 11 be bc 68 e9 be 31 41 a1 3e
       -0.45744252 -0.1424729 -0.45587718 0.3149505
0002f0 6a 99 b8 3d 73 fb d1 3e fb 4e 80 3e 95 79 e4 3d
       0.090136364 0.41012153 0.25060257 0.111560024
000300 64 e4 3c 3e 24 51 7e be dc 89 db 3e 5c 38 a5 be
       0.18446499 -0.2483564 0.42878616 -0.3226956
000310 ef 8f f4 bc 55 8f 10 be 89 0f 56 3e 5b 06 db 3d
       -0.02985379 -0.14117177 0.20904364 0.106945716
000320 8b be e5 3e e0 75 e9 3c 7c b3 e0 be 90 bb ac 3e
       0.44871935 0.02849859 -0.43886936 0.3373685
000330 08 11 9f 3e 06 c0 dd 3e df 4c 64 3e 8e 0e 7b 3e
       0.3106768 0.43310565 0.22294949 0.24517271
000340 d1 0a c4 3e 0e e7 74 be 99 8c 54 3e 5d 82 d2 bd
       0.38289502 -0.23916265 0.20756759 -0.10278771
000350 5f 85 56 3e 7c 20 f8 3e 5c be 84 3e 40 c8 09 3e
       0.20949315 0.48462284 0.25926483 0.13455296
000360 8b da de bd a4 58 f2 3d e7 f4 02 3e 88 be eb 3d
       -0.108815275 0.11833313 0.12788735 0.1151095
000370 42 e0 a4 3d f5 f0 10 be 00 23 6e 3e 44 ad ab 3d
       0.08050586 -0.14154418 0.23255539 0.08382657
000380 26 3e 87 be 07 f9 ed 3e 5b 55 7e 3e b7 cd 2d be
       -0.26414603 0.46479055 0.24837248 -0.16973005
000390 22 bb d0 3e 6c 5c 01 3e d2 b7 06 be 3e 8a dc be
       0.4076777 0.12632912 -0.1315606 -0.4307422
0003a0 1a 68 86 be 3f b9 87 3d d9 01 cf bc c8 bb 36 3d
       -0.26251298 0.0662713 -0.025269436 0.044612676
0003b0 fc 5d f8 3e 1e 47 11 bc cf a1 d6 3d 9a 2e 7d be
       0.48509204 -0.008867053 0.10480081 -0.24724808
0003c0 33 60 b4 3e 9a 1c 9b 3d 73 16 73 be 17 90 bb be
       0.35229644 0.07573815 -0.23739032 -0.3663337
0003d0 39 44 db be 5a e2 b1 3d 37 0a 65 be 12 c5 96 3e
       -0.42825487 0.08685751 -0.22367178 0.29447228
0003e0 05 2a c5 bd 06 0e 9e be c0 9c e0 3e 5d 27 9e 3e
       -0.09627155 -0.30870074 0.4386959 0.30889407
0003f0 24 44 45 3e 1d b5 aa 3d 7c 54 51 3d 42 90 94 3e
       0.19264275 0.08335326 0.05110596 0.2901631

net.0.linear.bias f4 [256]
000000 8e 4c ac 3e 59 ff 3f be 5b 09 e5 be a0 fc 1a 3f
       0.33652157 -0.18749751 -0.447337 0.60541725
000010 0d e2 c7 bd fa 5c 16 bf a2 39 fa 3e 6d 26 1a be
       -0.09759913 -0.5873562 0.48872095 -0.15053721
000020 9c cd 13 bf 2a 82 dd be 16 ac 05 bf a0 44 ad be
       -0.5773561 -0.4326337 -0.5221571 -0.3384142
000030 3f e7 1c bf 4e 3f 1a bf 7c 22 a9 be 9a d7 b3 be
       -0.61290354 -0.60252845 -0.33034122 -0.35125428
000040 2e b1 b0 3c 95 04 67 be 55 f1 11 3e 13 dc b2 bc
       0.02156886 -0.22560342 0.14252217 -0.021833455
000050 ca 8a 12 bf 19 a5 33 bf 04 cc a0 3e 7c fb 0b be
       -0.57243025 -0.70173794 0.31405652 -0.13670152
000060 94 13 3e 3e 7c 43 23 3d 85 b0 ab be 1d 7c 60 be
       0.18562156 0.03985928 -0.3353311 -0.21922345
000070 c4 0b 00 bf a8 0c 75 3e 52 57 28 bf 11 e4 12 3e
       -0.5001795 0.23930609 -0.6575824 0.14344813
000080 31 4f 3d 3e 82 1c 09 3f c8 9d 71 be b4 51 da be
       0.1848724 0.53559124 -0.23595345 -0.4264046
000090 ac d1 05 3f 5f 3e 05 3f 5e 13 11 3e 78 00 fb be
       0.5227306 0.52048296 0.14167544 -0.49023795
0000a0 fc fe 19 bf f0 1f 10 bf 84 1c 31 3f be 0a 2e bf
       -0.601547 -0.5629873 0.69184136 -0.6798514
0000b0 a8 ce 0c bf 33 98 d9 bd 06 5f 47 be ff de b8 be
       -0.5500283 -0.10624733 -0.19469842 -0.36107633
0000c0 91 b4 02 bf 06 a5 99 3e 43 6b 94 3e f2 0f c9 be
       -0.5105677 0.30008715 0.28988084 -0.39269978
0000d0 54 d6 9c be b1 a0 08 bf f6 d0 ae 3e 2e fa de 3e
       -0.3063227 -0.53370196 0.341438 0.43550247
0000e0 01 7c a5 bd 4f 5a ca 3e 7a 4a 0a be 65 52 ad be
       -0.080802925 0.39522025 -0.13504973 -0.33851925
0000f0 08 11 cb 3e 18 00 97 be 10 d7 21 bf 7a 0c 0e 3f
       0.3966143 -0.2949226 -0.63218784 0.5548779
000100 b6 7b a5 3e a1 b3 9c 3e 54 49 8c 3e d8 be 20 bf
       0.32320946 0.30605796 0.27399695 -0.62791204
000110 d2 ce 93 be 00 66 c2 be 50 61 45 3e 0c c6 86 3e
       -0.2886873 -0.37968445 0.19275403 0.26322973
000120 66 c4 e3 bd 3f 08 3d 3e 0c 96 ec 3c 39 58 c0 be
       -0.111214444 0.18460177 0.028880142 -0.3756731
000130 01 4d e6 3e 39 c3 33 3f 80 30 3c be db 0e 04 3f
       0.44980624 0.7021976 -0.18377876 0.5158517
000140 8c d1 16 3e b1 62 86 3e bf 3f 1a bf 0d 78 21 3e
       0.14728373 0.2624717 -0.6025352 0.15768452
000150 5c 40 2e 3f 03 07 25 bf 2e 14 17 3f 6f 8f e2 be
       0.68066955 -0.64463824 0.59015167 -0.44250056
000160 99 05 5c 3e dc 57 2f 3f 64 76 e3 bd 37 9a 1b bf
       0.2148651 0.6849344 -0.111065656 -0.6078219
000170 8e d5 61 3e e7 6e f4 bd 71 af 7a be e8 38 aa be
       0.22054121 -0.119352154 -0.24480988 -0.3324654
000180 86 4c 02 bf f5 55 08 bf 04 8a c1 3d c6 4f e6 be
       -0.50898015 -0.5325616 0.094501525 -0.44982737
000190 3f 2f 33 3f 96 b7 14 3e 70 9c f9 3e 6f e9 0d bf
       0.69993967 0.14523157 0.48752165 -0.55434316
0001a0 4c 87 2d be 1f 75 23 bf c8 01 48 3e 06 5f 29 bf
       -0.16946143 -0.6385059 0.1953193 -0.6616062
0001b0 e0 a0 03 3f f8 d4 0a 3d b6 d1 a7 be b5 4f b4 be
       0.5141735 0.03389451 -0.32777184 -0.35217062
0001c0 8d 61 05 bf 2b 74 18 3f 1a 26 10 be 28 f7 2c bf
       -0.52101976 0.5955226 -0.14077035 -0.6756463
0001d0 45 9b 15 bf 3e 54 20 3e e2 22 18 3f a9 34 07 bf
       -0.5844005 0.15657136 0.59428227 -0.5281473
0001e0 e4 48 0c be c1 9a b3 be ef 80 ff b9 bd 0a f9 be
       -0.1369968 -0.35079005 -0.00048733453 -0.48641005
0001f0 63 f4 f3 be 82 46 cc be e5 39 8f 3d ea 3b 0d 3f
       -0.4764739 -0.39897543 0.069934644 0.55169547
000200 a3 6d 9e 3e 9c f2 96 3e d5 2b 1e bf 28 e9 dd bd
       0.3094302 0.2948197 -0.6178563 -0.10835487
000210 bf 20 7a be b2 b2 34 3e 2c d5 84 be 1b b0 22 bf
       -0.24426554 0.17646292 -0.25943887 -0.63549966
000220 e0 10 53 be c3 f3 54 be 18 61 0c 3f a3 3f 0f 3c
       -0.20611906 -0.20796113 0.54835653 0.0087431995
000230 56 2f a2 bd 3f b7 0f 3f dd 89 ea 3e 51 f7 97 be
       -0.07919185 0.56138986 0.45808306 -0.29680875
000240 ae 51 10 3f 44 54 d9 be ed 3f b2 3c ba 32 24 3e
       0.56374633 -0.42447102 0.021758998 0.16034976
000250 fe 64 01 bf a2 e0 04 bf ea 04 12 bf d8 58 9d be
       -0.50544727 -0.5190526 -0.5703875 -0.30731845
000260 ba 68 fd be 59 a0 fa bd 96 ef 7b be 12 7f d6 be
       -0.49493963 -0.12237615 -0.24603114 -0.41893822
000270 32 e9 11 be b1 36 8a 3e 23 26 33 bf 67 af bc bd
       -0.14249113 0.2699485 -0.69980067 -0.09213143
000280 c8 23 17 bf 13 27 a7 be ac 9e dd 3d 9b 70 8e 3e
       -0.5903897 -0.32647 0.1082128 0.27820286
000290 2a a2 8c 3e d1 7b 9d 3d 55 45 34 3f 6a 95 41 3e
       0.2746747 0.07689632 0.7041829 0.18904653
0002a0 88 1c e0 be 66 5c a3 bd cb e6 a0 3e ba 71 ec 3e
       -0.43771768 -0.07976608 0.3142608 0.46180516
0002b0 ce e9 98 3e 32 da f5 be 16 9b ab be 98 eb c8 be
       0.2986588 -0.48018032 -0.3351676 -0.39242244
0002c0 cd d4 3e 3e 1a fd 2b 3f cd 3d 4d 3e a0 e1 23 3f
       0.18635865 0.6718308 0.20043106 0.6401615
0002d0 3e be cc 3e 92 a6 11 3e af bf b7 3e b0 40 34 bf
       0.39988893 0.14223698 0.3588843 -0.70411205
0002e0 54 d4 6f 3e 74 1a d6 3d bc 14 b7 bd 3f 82 12 bf
       0.2342084 0.10454264 -0.08939502 -0.5722999
0002f0 1b 26 15 3e dc 22 c2 3e ed 90 98 be a4 c7 61 be
       0.14565317 0.3791722 -0.2979807 -0.22048813
000300 f1 dd d9 3e 05 70 f5 3e f6 61 93 be 99 30 c1 3e
       0.4255214 0.47937027 -0.28785676 0.3773239
000310 68 a2 7d be 17 ef fc 3e 6b e6 e6 be ba 2a cb be
       -0.24768984 0.4940116 -0.4509767 -0.39681035
000320 f4 83 2b 3f 36 43 f9 3e b2 aa 85 3d 22 c5 09 3f
       0.6699822 0.4868409 0.06526698 0.53816426
000330 2f 06 9a 3e 78 c6 e3 3e dd f6 d1 3e 89 a6 08 3f
       0.30082843 0.44487357 0.41008654 0.5337911
000340 8b d9 da be dc b8 7e be 3f cd 92 3e 15 e1 0e 3e
       -0.42744097 -0.24875206 0.28672215 0.1395305
000350 f6 01 f0 be a7 58 4d 3e 90 36 23 3f ad 74 2c 3f
       -0.46876496 0.2005335 0.6375513 0.67365533
000360 36 fb e9 3e b4 e8 ef 3e 46 5b ea 3e d1 a4 c7 3e
       0.4569947 0.46857226 0.4577276 0.38992932
000370 0a 32 a4 3e 9d a8 e7 3e 34 7e 94 3e 5f c8 27 3d
       0.32069427 0.4524583 0.29002535 0.040962573
000380 dc 0c cb 3e 6c 5c 30 3e f8 8c f7 be ef e0 27 3f
       0.39658248 0.17222756 -0.48349738 0.65577596
000390 e3 b4 cd be 34 ad 83 3e 33 77 d3 39 fe bc 25 3f
       -0.40177068 0.2571808 0.00040333866 0.64741504
0003a0 c0 08 db be 67 60 3d be 7d 4e d9 3e 73 74 42 3e
       -0.42780113 -0.18493806 0.42442694 0.18989734
0003b0 e2 52 fe be bd ac ca be bd 89 2a bf c3 0e 11 bf
       -0.4967261 -0.39584914 -0.6661642 -0.5666315
0003c0 64 1b 5f be 03 99 5e 3e bd a8 8f be 02 a4 09 bc
       -0.21787792 0.21738057 -0.28058425 -0.008400919
0003d0 52 bf 00 3f c6 c0 bd be 49 8f 8c be ff cb cd be
       0.5029193 -0.37061137 -0.27453068 -0.401947
0003e0 d0 89 25 3f 07 73 2b 3c a4 16 93 3e bf c2 ad 3e
       0.6466341 0.010464436 0.2872821 0.33937642
0003f0 59 0d 20 bd 33 89 18 bf a8 1d 85 3e a1 cb 03 3f
       -0.03907523 -0.5958435 0.25999188 0.5148259

net.1.linear.weight f4 [256, 256]
000000 4c af 0f bc b6 ed fe b9 24 3a 37 bb 9a 5b 5a 3a
       -0.008769821 -0.00048623764 -0.0027958238 0.000832969
000010 d8 ce 21 39 57 8c 4c bb 78 3b 6b bb 43 8a 8d b9
       0.00015431212 -0.0031211579 -0.00358936 -0.0002699663
000020 58 e8 8e 3b d0 ba 85 3b 90 0d 87 ba 78 15 47 39
       0.0043611936 0.0040811077 -0.0010303725 0.00018986117
000030 f4 89 ac 3b dc df 84 bb 10 fa bb 3a df f5 d9 3b
       0.0052654687 -0.0040550064 0.0014341492 0.0066516246
000040 07 87 29 bc 70 91 17 3b 69 43 cd bb ec 1a 38 ba
       -0.010347134 0.002312746 -0.0062641394 -0.00070230546
000050 a4 18 90 3b bf b7 88 ba 93 fb 1b bb 52 c6 cf bb
       0.0043974686 -0.0010430737 -0.0023801073 -0.0063407803
000060 63 6c 93 bb 0c 79 be bb 7e 6b 2f 3c 58 cd b6 ba
       -0.0044990047 -0.0058127698 0.0107067805 -0.0013946695
000070 34 b5 a5 3b 0c bb 3a bb 30 b7 35 39 f1 bb ef bb
       0.0050570015 -0.0028492836 0.00017329748 -0.0073161055
000080 40 30 07 bb 52 7b 5a bb 46 a3 c2 3a 05 9f 5c 3b
       -0.0020628124 -0.0033337665 0.0014849685 0.003366412
000090 7e 83 52 3b 98 1d 55 bb 4e 52 a4 3a 8f 33 13 bb
       0.0032121832 -0.003251886 0.0012536736 -0.0022461151
0000a0 68 7f 1a 3b 95 d2 b7 3a a4 82 3a 3b b1 bf 4a bb
       0.0023574475 0.001402455 0.0028459216 -0.003093701
0000b0 97 2e 8e 3a 4e 45 30 3b 36 ab 12 3b e1 86 9a bb
       0.0010847625 0.0026896778 0.0022379882 -0.004715786
0000c0 fe c6 ab bb 44 b8 58 bb 20 1b 3d 3b 7d dd 40 bb
       -0.0052422276 -0.0033068815 0.002885528 -0.0029428892
0000d0 49 fb 4c 3b c8 23 cc bb 74 d6 16 bb ee f7 56 bb
       0.0031277707 -0.0062298514 -0.0023016008 -0.0032801586
0000e0 1f 8c 8c bb b1 8e 15 3b 23 32 f4 39 5f 5d 8b ba
       -0.0042891647 0.0022820646 0.0004657666 -0.0010632685
0000f0 09 9e 98 3a 07 cd 2f ba b1 bc 7c b8 58 22 59 3a
       0.0011643778 -0.00067062717 -6.0257214e-05 0.00082830107
000100 06 e1 f6 b9 d7 02 90 bb e2 98 5f 3a 6b cb 24 3b
       -0.00047088432 -0.00439487 0.0008529556 0.002514566
000110 ce 71 86 bb 54 ad c1 ba 58 d1 a9 3b 7f 74 72 3b
       -0.004102922 -0.0014776387 0.0051824264 0.0036995707
000120 07 83 34 bb 5e 72 c4 bb 2e b5 62 3b 40 a9 68 bb
       -0.0027543919 -0.005995079 0.0034592855 -0.0035501271
000130 6e dd 58 3a 2f 6f e9 b9 bb fa 68 ba 99 e9 81 bb
       0.00082727417 -0.0004452406 -0.00088874594 -0.0039646146
000140 43 c9 fa ba cb e9 97 3b c5 17 e0 39 70 5a 7e 3b
       -0.0019133467 0.0046360246 0.0004274232 0.003881123
000150 22 b0 8d bb e5 47 bc bb 13 50 a7 3b 81 81 c1 bb
       -0.004323975 -0.005745875 0.005105981 -0.0059053306
000160 0a ec b8 3a cb 78 c1 b8 04 f8 6a bb 1f ed bb bb
       0.0014108431 -9.2254566e-05 -0.0035853395 -0.005735054
000170 d5 0c ac 3b c3 4f 31 bb be 31 25 bb ca 5a 38 bb
       0.005250553 -0.0027055598 -0.002520665 -0.0028130286
000180 96 16 0d b8 41 e9 9c 3b 3e a2 67 bb d5 e2 ad 3b
       -3.3638054e-05 0.004788548 -0.0035344507 0.0053065815
000190 a7 69 6a bc 26 e7 66 3b 7b e9 2b bb 4e 3e 5c bb
       -0.014307416 0.003523299 -0.0026231695 -0.0033606472
0001a0 a0 f1 00 bb b4 a1 07 bb cf 77 bd bb 5b 88 ab 3b
       -0.001967527 -0.0020695748 -0.0057821046 0.0052347607
0001b0 1e c4 a7 bb c0 92 f1 3b d1 32 2d 3c 8b 4c af 3a
       -0.0051198145 0.0073722303 0.010571198 0.0013374252
0001c0 bc 81 b4 ba e2 dd a0 39 8e 8b b1 3b d1 30 45 bb
       -0.0013771574 0.00030682894 0.0054182475 -0.0030088911
0001d0 7e 47 04 3a 51 5a 09 bb 76 d1 42 3c 4b 02 9a ba
       0.00050460536 -0.0020958374 0.01189076 -0.0011749951
0001e0 c2 a4 ee 3b ae e7 8c 3b 8e 5d 6e 3b 90 f8 c5 bb
       0.0072828243 0.0043000793 0.003637168 -0.006041594
0001f0 1b bd 47 3b ea 8d 04 3c 8a a7 da ba b8 e3 bb 3b
       0.0030477706 0.008090476 -0.0016682011 0.0057339333
000200 05 1b c8 bb 0d 91 01 bb c1 7b f8 3a cd 4f 1c 3b
       -0.0061067366 -0.0019770295 0.001895778 0.0023851276
000210 77 51 8a ba e8 92 71 39 e1 6d 95 bb 00 c6 98 3b
       -0.0010552843 0.00023038278 -0.0045602177 0.0046622753
000220 6b 89 83 ba ce 3c a6 3b ec fa 1d bb 6b a5 66 b8
       -0.001003546 0.0050731665 -0.002410586 -5.499033e-05
000230 20 2e d4 bb 2b fa 90 3a 94 ad 14 3b a7 2d 09 bb
       -0.006475225 0.0011060884 0.0022686468 -0.0020931752
000240 2f 63 50 3b e7 3b be 3b ff 76 b5 bb 29 cf a1 bb
       0.00317974 0.0058054808 -0.005537867 -0.0049380255
000250 2b 08 e9 bb 98 c1 8d 3b 0f 0e 8b b9 d3 c5 12 39
       -0.0071115694 0.0043260567 -0.0002652262 0.0001399734
000260 9b e6 07 ba 30 60 b1 3b b8 61 6d bb f6 1d b4 3b
       -0.0005184204 0.005413078 -0.0036221575 0.0054967357
000270 e2 40 fc bb 25 85 07 3c 8c a5 b8 bb 90 4e 85 ba
       -0.0076981643 0.00827149 -0.005634969 -0.0010170508
000280 f7 4c c0 3b 4e 21 48 3b 40 af cc 3b c8 84 11 bc
       0.00586855 0.003053743 0.0062464774 -0.008881755
000290 55 1e 24 bb f7 62 9c bb d0 d4 27 3a 43 71 82 3b
       -0.0025042493 -0.0047725397 0.0006402256 0.003980787
0002a0 c3 c8 03 bb 4a a8 59 bb a5 c6 d9 ba f3 46 8c 39
       -0.0020108677 -0.003321188 -0.0016614987 0.00026755742
0002b0 72 2f 88 b9 48 b0 33 3a 63 f8 9d 3a 46 cf bc 3b
       -0.0002597529 0.0006854576 0.0012052174 0.0057620136
0002c0 49 63 28 3b 50 d4 9c 3b 06 9e 43 3b 5f 56 45 bc
       0.0025693944 0.004786052 0.0029848828 -0.012044518
0002d0 1c ad 91 3a 15 67 ac bb 86 2b 55 bb f0 79 87 ba
       0.0011114213 -0.005261312 -0.0032527163 -0.0010336023
0002e0 30 3f 0f bc b5 5b 35 bb b3 f5 b4 bb ea 1e c1 ba
       -0.008743092 -0.002767307 -0.0055224537 -0.0014733945
0002f0 44 1a 46 ba db 47 f8 ba 4d fd 5c 3b bf c0 1e ba
       -0.00075570145 -0.0018942313 0.0033720315 -0.0006055943
000300 e7 e4 68 3b dd c8 9d bb fb 30 1d ba 72 dd dd 3a
       0.0035536827 -0.0048152045 -0.00059963734 0.0016926958
000310 2f bd 8e 3b c2 eb 46 3a 9c 54 ea bb 94 8c 1b 3b
       0.0043560485 0.0007588231 -0.0071511995 0.0023734914
000320 c5 b3 7d 3b 6d 10 c6 bb 96 09 7c bb 37 64 a6 3b
       0.0038711887 -0.0060444386 -0.0038457862 0.0050778645
000330 7a f4 b1 3a a2 11 f2 ba 80 90 d1 3b 5e 8b 14 b8
       0.0013576888 -0.001846839 0.0063953996 -3.5415746e-05
000340 ea 1b f1 ba 79 0b 04 3a 64 65 2a 3a 12 c7 e1 bb
       -0.001839516 0.000503711 0.0006500094 -0.006890186
000350 67 ac 7c 3b a9 30 f5 b8 b0 a3 7e 3a 7f 12 8b bb
       0.0038554908 -0.00011691574 0.00097137224 -0.0042441483
000360 06 73 10 bb ca 67 ee 3a f4 d4 ac 3a 34 b3 6d 3b
       -0.0022041216 0.001818889 0.0013186024 0.0036270143
000370 f9 ee 87 bb d9 9b 86 ba fd 87 b4 3b 38 6e 83 bb
       -0.004148361 -0.0010269835 0.005509375 -0.004010942
000380 3b f7 1d ba ea 30 7c 3b d6 ce a1 39 be eb 82 3b
       -0.0006025915 0.0038481303 0.00030862418 0.003995388
000390 86 5c 83 3b 71 5b cc ba 4f ef 75 3b de c1 67 bb
       0.0040088324 -0.0015591217 0.0037526672 -0.0035363357
0003a0 e8 c3 90 3b 28 2b 90 3b 0b bd ca bb 7a ce da 3a
       0.004417885 0.004399676 -0.0061870865 0.0016693615
0003b0 04 52 a3 3b 8d 1e 35 b9 00 86 6a ba 6f cd 64 ba
       0.0049841423 -0.00017272886 -0.0008946359 -0.0008728122
0003c0 36 4a 3d bb be d1 ce 3b 9e 84 b9 bb d9 b3 cd bb
       -0.0028883344 0.0063116243 -0.005661561 -0.006277543
0003d0 15 fc f1 3b 78 cb 12 bb 22 02 a1 bb 7a 70 68 bc
       0.007384787 -0.002239911 -0.0049135843 -0.014186973
0003e0 91 e0 cb 3a e6 f6 fc ba 26 03 d8 35 7d f9 2f b9
       0.0015554597 -0.0019299656 1.609417e-06 -0.00016782242
0003f0 48 e5 1b bb 2f cb 5b bb ee 96 31 bb e5 61 74 3b
       -0.0023787785 -0.0033537855 -0.0027098018 0.0037289795

net.1.linear.bias f4 [256]
000000 5d ae 56 bc 44 00 94 bc 63 f8 1b bd ee d5 0c bd
       -0.013103095 -0.018066533 -0.038078677 -0.034383707
000010 fc 7f ae bc 05 74 68 bd 3c 33 0e bd 6e de 02 bb
       -0.021301262 -0.05675127 -0.03471683 -0.0019969004
000020 71 e6 a9 3c a9 c8 5f 3d 9a 81 05 bc 05 70 6f bd
       0.020739766 0.054634724 -0.008148575 -0.05845644
000030 3c fd 7b bb d6 63 97 3c e0 5a 87 3c 45 7e 70 3d
       -0.00384505 0.018480223 0.016522825 0.05871417
000040 1f 3c 13 bc 9d 48 44 bc 6c 0d 24 3d 74 1d af bc
       -0.008986502 -0.011980203 0.040051863 -0.021376349
000050 e0 fc 30 3d ad bc dd 3c 7c 97 5c 3d 01 39 d5 3c
       0.04320991 0.027067507 0.053855404 0.026028158
000060 76 12 f1 3c be 4c 08 3d 7a 53 4f bd 1c 47 54 bd
       0.029427748 0.033276312 -0.05061672 -0.051825628
000070 4c b5 36 3d cc 4b 74 bc bd 13 3f bc d1 66 00 bd
       0.044606492 -0.0149106495 -0.011662421 -0.031348053
000080 82 03 39 3d dc 0e 60 bc 0d 56 07 3d 54 a7 1d bd
       0.04516936 -0.013675418 0.03304105 -0.038489655
000090 05 f2 54 3d 0e 93 75 bd d2 64 13 bd 1d dd 35 3c
       0.05198862 -0.059954695 -0.03598482 0.011100081
0000a0 92 36 d5 3b a1 91 6d bd 36 45 3f bd 72 d7 48 3d
       0.0065067494 -0.05800021 -0.046696864 0.04903359
0000b0 0f 18 5c 3d 7e 3c a7 3b 67 92 f1 bc 7c 29 6a 3c
       0.05373388 0.005103647 -0.029488755 0.014292117
0000c0 73 61 66 bd 1e 18 67 bd 7c ad 14 3d 64 56 63 3d
       -0.05624528 -0.056419484 0.03629826 0.05550231
0000d0 c8 3c 1b bc a4 21 fc 3b f0 a4 c3 bb 70 23 29 3d
       -0.009474941 0.00769444 -0.00597059 0.04129356
0000e0 93 13 5e 3c 68 3c 3a 3d dd 8d 2f bd 43 9a 80 3d
       0.013554472 0.045467764 -0.0428599 0.06279423
0000f0 f5 f1 7f 3d 4f e0 3a 3d 1c d9 c8 bc 96 32 41 bd
       0.062486608 0.045624074 -0.024517588 -0.047167383
000100 16 55 a3 3a 03 41 ab bb 5a 45 ca 3c 0f ed 87 3c
       0.0012461271 -0.005226256 0.024691273 0.01659253
000110 83 33 ec bc f8 d5 28 bc c5 7a f5 bc bb d0 77 3d
       -0.028833156 -0.01030492 -0.029965768 0.060501795
000120 e9 a9 92 3a da b3 07 3c be e5 4e bb f5 41 00 bd
       0.0011189553 0.008282626 -0.0031570042 -0.0313129
000130 2d 86 b3 3c ca c3 3a 3d 58 4e 7a 3d d9 30 1a bc
       0.021914566 0.045596875 0.06110987 -0.00941106
000140 81 b8 23 3d d9 94 f2 3c 4b 07 07 bd 56 83 54 bc
       0.03997088 0.029611992 -0.03296594 -0.012970766
000150 5f da e7 3b 5f ee 06 bc 6c 19 c6 3b cd 26 1e 3d
       0.0070755924 -0.008235543 0.006045511 0.038611222
000160 c4 12 46 bd 0a 5f 05 bd 57 61 59 3c 05 70 42 3d
       -0.04835774 -0.03256134 0.0132678365 0.04747011
000170 7e 82 d9 bb b3 71 2c 3d 84 0a 63 3d ce fd b5 bc
       -0.0066378703 0.04210062 0.05542995 -0.02221575
000180 15 51 65 3d ab b0 48 bc 1f 66 af bc 18 bd 10 3d
       0.05598553 -0.012249152 -0.021411 0.035336584
000190 0f 70 86 bc 5b ea 21 3d b9 a2 d0 bc bb 14 69 bd
       -0.016410856 0.03953014 -0.025468217 -0.056904536
0001a0 77 27 f5 bc b2 3d 18 bd 90 31 9f bc 99 93 ef 3b
       -0.029926045 -0.037168212 -0.019432813 0.007311296
0001b0 aa f5 77 3d 31 7d 0d 3d 57 d2 8e 3a 57 65 d9 bc
       0.060537018 0.03454322 0.0010896426 -0.02653758
0001c0 6e 59 62 3d 75 4a 54 bd 3e 3a 85 3b 17 2c 72 3d
       0.055261068 -0.05182882 0.004065781 0.05912408
0001d0 63 c7 94 bc ba 1e 36 bd 25 b9 73 bd c5 b2 5d 3c
       -0.018161481 -0.044462897 -0.05950274 0.0135313915
0001e0 f4 20 68 bd ad e9 3c bc 9c 32 e0 ba 72 fa 12 3d
       -0.05667205 -0.011530322 -0.0017104927 0.035883375
0001f0 3c 27 9c bc 9b f8 ef 3c 10 d0 4b bd b6 85 24 3d
       -0.019061677 0.029293349 -0.04975897 0.04016658
000200 8a 31 e5 3c c7 0c c4 3c 0d 65 05 bd 85 d2 78 3d
       0.027977724 0.023931874 -0.032567073 0.060747642
000210 fa 32 4f bc 14 4e 28 bd 6b f6 66 bd 4d e3 40 bc
       -0.012646431 -0.041090086 -0.056387346 -0.011772943
000220 c0 9d 30 bd 98 29 63 bd 05 93 71 3d bd 33 1f bc
       -0.043119192 -0.05545959 0.0589781 -0.009716925
000230 e6 17 a1 3c fb a5 32 bd 1e 50 3f 3d 82 a1 44 bd
       0.019664716 -0.043615323 0.046707265 -0.04800559
000240 63 f0 b5 bb 70 de 42 3d 7a 18 23 3d 2a 35 37 bc
       -0.005552338 0.047575414 0.039818265 -0.011182109
000250 1f 2d 09 bd f9 69 52 bd a3 a3 f8 bc f8 29 5f 3d
       -0.033490296 -0.051370595 -0.030351466 0.054483384
000260 d8 8b c8 3c bd e6 6c bd a9 33 33 3c b3 18 36 bc
       0.024480745 -0.057837237 0.01093761 -0.011114287
000270 89 6e 26 3d 82 86 3d 3d 04 cc 48 bd 93 a9 11 3d
       0.04063276 0.046270855 -0.04902269 0.03556211
000280 bb e9 5f bc 0c ff e4 3c dc 30 6e bd 49 32 71 bb
       -0.0136665655 0.027953647 -0.058152065 -0.0036803654
000290 b6 45 cc 3c 4e 06 67 bb ca 44 4f 3d da 30 c1 3c
       0.024935585 -0.003525156 0.05060271 0.023582865
0002a0 be 3a 37 3a 74 a5 2e 3c ff e5 22 3d 03 f8 fa bb
       0.0006989649 0.010659564 0.039770123 -0.00765896
0002b0 0e 85 b0 3c 04 66 83 3a ca 33 95 bc df 52 b7 3c
       0.02154782 0.001002491 -0.018213172 0.022378383
0002c0 3e 8d 43 bd 41 3d 22 3b e9 cb 9d bb 24 97 e7 bc
       -0.04774212 0.0024755748 -0.0048155678 -0.028270312
0002d0 f0 30 e7 3b f5 ee 28 bd 65 d0 d3 3c 0a 75 36 3d
       0.0070553944 -0.041243512 0.025856206 0.04454521
0002e0 2e 13 61 3d bf 1b 60 3d 53 3c e2 bc 42 be 69 3c
       0.05494993 0.05471396 -0.027616655 0.014266552
0002f0 fb c8 3e bd d2 df 59 bd b8 20 3d bb 28 29 b2 3c
       -0.04657839 -0.053191967 -0.0028858613 0.02174814
000300 9e 0f 33 3d b6 9c 72 3d 98 45 20 bd 41 c0 14 bd
       0.043716066 0.059231482 -0.03912887 -0.03631616
000310 32 00 32 bd 14 13 68 3b 20 04 42 3d cd 32 5d bc
       -0.043457218 0.0035411762 0.047367215 -0.013500881
000320 fd 2a 13 bd 3d c9 3a bd e7 61 cb bc e7 f0 f7 3c
       -0.03592967 -0.045602072 -0.024826957 0.030266238
000330 bd ef 91 bc ce b9 0e bd 02 e6 a2 bc 8f 38 1f 3d
       -0.017814511 -0.034845166 -0.019885067 0.038872298
000340 fb 68 0a 3d ec 38 22 3d 67 01 7e bd d5 57 63 bd
       0.033791523 0.039605066 -0.062013056 -0.055503685
000350 22 f3 02 bc 41 84 2e 3d 50 d5 96 bc ae b9 81 3b
       -0.007992538 0.042606596 -0.018412262 0.0039589023
000360 52 b4 64 3d 6a d6 b8 bc d2 a6 81 bc 1d ab e1 bc
       0.05583603 -0.022563178 -0.015826616 -0.027547413
000370 dd c0 52 bd 35 f3 47 bd 1e 34 14 bc eb 00 ce ba
       -0.05145346 -0.048815925 -0.009045629 -0.0015716826
000380 95 da b3 3c 14 37 5a bd bf f7 4b bb 8c 9f f3 3c
       0.021954814 -0.053275183 -0.003112301 0.029739164
000390 ee ac 64 bb 83 8f 74 3d 1c b5 58 3d c2 8f ed bc
       -0.0034893113 0.059707176 0.052907094 -0.028999213
0003a0 5d 85 37 3d 42 40 49 3d d7 40 ac 3c 64 12 1c bd
       0.04480492 0.049133547 0.021027012 -0.038103476
0003b0 bf 6c 7c 3d f4 c4 a2 3c c7 75 19 bd 9b 02 91 bb
       0.061627146 0.019869305 -0.037465837 -0.0044253594
0003c0 c7 dc 17 3d a6 57 7b 3d 46 b5 a7 bc 16 01 a5 bb
       0.037075784 0.061362885 -0.02047218 -0.00503553
0003d0 e9 ba e8 bc 15 8f 41 3b 9a 93 45 3d ef 74 15 3d
       -0.028409438 0.0029534746 0.048236467 0.03648847
0003e0 fa c6 1a bd e8 2e 2f bd 55 fb 54 3d a9 83 b6 bc
       -0.037787415 -0.042769343 0.0519975 -0.022279577
0003f0 26 c6 a7 3b 90 b6 38 bd b6 16 e7 bc 26 af cd bc
       0.0051200567 -0.04509598 -0.028209072 -0.025107931

net.2.linear.weight f4 [256, 256]
000000 1a e4 d7 3b 9e d2 94 ba a1 a2 b6 3a 56 43 bb 3b
       0.006588471 -0.0011354273 0.0013933965 0.005714814
000010 e7 44 8c 3a a7 34 71 ba f7 f9 79 bb b2 65 fb b9
       0.0010701687 -0.0009201266 -0.0038143375 -0.0004795022
000020 4a c1 fe bb 58 3d 78 ba ef eb 04 bc df c2 9d 3b
       -0.0077745067 -0.000946959 -0.008112892 0.00481449
000030 44 6f 29 bb 5d 59 87 39 ad 8b ff 3a b1 ba 68 bb
       -0.0025853673 0.00025815787 0.0019496583 -0.0035511667
000040 23 57 84 bb 8e 4a a4 39 e4 24 0b 3b ad 4b 84 ba
       -0.004038708 0.00031336065 0.0021231705 -0.0010093354
000050 cf 75 0f bb b9 77 a3 3b 68 60 12 3b e5 10 59 3b
       -0.0021890288 0.0049886373 0.0022335295 0.0033121642
000060 62 7e ba ba b2 20 a8 ba c1 5f 10 bb bc d6 59 bb
       -0.0014228339 -0.0012827127 -0.002202973 -0.0033239564
000070 8c 36 59 3b 74 00 10 ba b2 f1 08 bb 22 9c 89 3a
       0.0033144085 -0.00054932316 -0.0020896015 0.0010498802
000080 ef 63 8a ba 48 4c 07 ba 68 80 7d bb cc 2e 3d 3b
       -0.0010558347 -0.0005161208 -0.0038681272 0.0028867004
000090 e2 8e 9e bb e4 b6 53 3b 86 d3 0b bb dc c3 63 3a
       -0.0048388103 0.0032305056 -0.0021335795 0.0008688548
0000a0 f7 e6 18 3b a5 13 8e 3a 85 41 79 3b 96 17 30 bb
       0.0023331025 0.0010839595 0.0038033437 -0.0026869527
0000b0 87 bb 8a 3b ca 9a 14 bb 0d 0f ac 3b 9e 1c 73 bb
       0.004233781 -0.002267527 0.0052508176 -0.0037095915
0000c0 72 2f 30 bb 65 d3 8f ba d8 c4 fe 3a 63 43 94 bb
       -0.0026883748 -0.0010973035 0.0019437326 -0.0045246347
0000d0 77 bd 42 ba dc 45 c0 3b 15 4f 0c 3c b6 d7 9f 3a
       -0.0007428745 0.005867703 0.0085637765 0.0012195024
0000e0 25 cc c5 bb 4c 64 18 bb 1c c8 86 3b fe 04 54 ba
       -0.006036299 -0.002325314 0.0041132104 -0.0008087902
0000f0 e3 7f 54 3b 3f 87 49 39 08 76 f6 3a b8 d6 8d 3b
       0.003242486 0.00019219237 0.0018803487 0.004328575
000100 b2 bb a7 b9 ba a8 8c 3b 03 ce c2 bb c9 70 17 3b
       -0.00031992566 0.0042925747 -0.0059449687 0.0023107997
000110 a3 58 80 3b 94 a6 2f bb db 54 88 ba a5 50 c4 ba
       0.0039168163 -0.002680217 -0.0010401265 -0.0014977647
000120 13 f8 46 3b b8 78 96 bb c8 a2 22 3a 70 d5 8b bb
       0.0030360266 -0.0045920275 0.0006204066 -0.004267387
000130 88 af 45 bb 71 76 55 bb cd 61 e9 3a 03 52 50 ba
       -0.003016444 -0.0032571817 0.0017805636 -0.0007946791
000140 48 ae d2 3a a4 97 b2 ba 18 a5 86 b9 e3 23 db 3b
       0.0016073668 -0.0013625515 -0.00025681476 0.0066876276
000150 50 76 cd 3a 94 5c bd 3a 71 cd 20 ba d4 6a 74 b9
       0.0015675519 0.0014447146 -0.0006134129 -0.0002330945
000160 79 e7 e7 ba 7a 85 a0 3a 58 42 d6 bb e1 1a d8 3a
       -0.0017692886 0.001224681 -0.0065386705 0.0016487503
000170 72 59 4a 3b f6 00 de 3a 45 d8 bf ba d3 88 87 3b
       0.0030876067 0.0016937542 -0.0014636597 0.0041361838
000180 38 c4 99 ba 4e 98 5c bb 52 be aa bb ff 97 86 ba
       -0.0011731451 -0.0033660117 -0.005210676 -0.0010268687
000190 36 72 9a bb 8b 62 97 bb 57 14 14 bb 9c b7 2c 37
       -0.004713322 -0.0046199015 -0.0022595131 1.0294749e-05
0001a0 bf 20 5c ba ee 8e 25 bb 3c fa 29 ba 26 07 f6 ba
       -0.00083972135 -0.0025262195 -0.0006484126 -0.0018770441
0001b0 4c a4 d2 bb c7 39 b4 bb 8b 9d 5b bb 7c a1 78 3a
       -0.006428277 -0.0055000517 -0.003351065 0.0009484512
0001c0 64 72 b4 3a 34 3b c4 39 08 a5 06 3a 5d 44 d4 bb
       0.0013767001 0.00037428143 0.0005136286 -0.006477876
0001d0 71 69 86 3b d9 16 63 ba 82 0e 45 ba 53 9c 10 3a
       0.004101925 -0.00086627674 -0.00075171154 0.0005516458
0001e0 f5 b8 3c ba b0 48 fa 3a d0 56 e7 ba 04 a0 1b 39
       -0.00071991916 0.0019095149 -0.0017649774 0.00014841562
0001f0 ce 03 37 3a f8 5e cc ba 1e 07 d6 3b 45 2a d4 bb
       0.0006981463 -0.0015592268 0.00653161 -0.0064747655
000200 dc 51 ab 3a 34 40 68 3b f5 67 8f 3b 5d 2d 6b bb
       0.0013070661 0.0035438659 0.0043764063 -0.0035885193
000210 a9 c3 12 3b bc 79 9e 3b 0f 63 84 3b ea b0 a2 3a
       0.0022394455 0.004836289 0.004040129 0.0012412344
000220 15 30 6d 39 12 23 41 b8 da a2 39 3b e9 aa f9 ba
       0.00022619993 -4.6047448e-05 0.0028325827 -0.0019048128
000230 bc 0f f7 39 90 22 38 3b 70 fb 09 bb 09 ae b2 39
       0.00047123234 0.0028096773 -0.002105441 0.00034080472
000240 1f ef 9e 3b 91 62 64 bb 1b 93 11 bb 45 5a e9 b9
       0.004850283 -0.003484879 -0.0022212926 -0.0004450848
000250 92 5f 84 3b c6 f7 c7 3a a8 75 80 ba a1 b0 86 3b
       0.004039713 0.0015256337 -0.0009800689 0.0041104113
000260 83 b0 a0 39 b4 85 7f bb 8e af 01 bb 72 66 8e 3b
       0.0003064909 -0.0038989605 -0.0019788477 0.0043457085
000270 40 de 67 bb ca fa 9b 39 d9 9d a6 ba ff 92 95 bb
       -0.0035380274 0.00029750756 -0.0012711837 -0.0045646424
000280 7a 28 f0 3b a1 ed 9a ba 42 ac bb b7 70 4f 00 3c
       0.007329044 -0.0011820087 -2.2372351e-05 0.007831439
000290 a3 53 87 bb f2 13 9e ba 5e 1d e6 3a ab 59 a6 ba
       -0.0041298433 -0.0012060388 0.001755636 -0.0012691518
0002a0 33 c2 4f ba 9e af c8 ba f7 f2 8b bb 2b d0 d7 ba
       -0.0007925361 -0.0015311127 -0.004270907 -0.0016465237
0002b0 dc db 90 ba 79 fa 04 bb 98 2c 98 3b 5f 56 e2 ba
       -0.0011051851 -0.0020290895 0.004643988 -0.0017268172
0002c0 f1 e9 61 bb 9c 23 56 3b 6f 92 2f bb 13 ff 5b 3b
       -0.0034471715 0.0032675033 -0.0026790162 0.0033568784
0002d0 5c 7d 44 ba 61 e7 44 bb 0c 67 93 bb 96 66 a8 3a
       -0.00074954866 -0.003004514 -0.004498368 0.0012847956
0002e0 45 34 79 3b 64 98 de ba 0c 9f 37 39 14 94 12 3a
       0.003802554 -0.0016982672 0.0001751149 0.00055915234
0002f0 d7 1c a8 bb 25 55 96 ba 39 7e 79 ba aa f7 c0 3a
       -0.005130391 -0.0011469467 -0.0009517405 0.0014722247
000300 c7 b9 2e 3b cd 36 34 3b 43 da 16 b9 90 df 10 bb
       0.0026661025 0.0027498484 -0.00014386424 -0.002210591
000310 b0 94 5f bb cd 73 9c bb 2f 14 42 bb 5b 07 5c 3b
       -0.0034115724 -0.0047745467 -0.002961408 0.003357372
000320 fe 45 bc b9 40 fa b1 3b 92 eb 99 3b 03 df 5e 3b
       -0.00035910303 0.0054314435 0.0046972716 0.0034007437
000330 02 f6 05 3c 99 c6 79 3a 98 86 a6 3a 07 14 20 3a
       0.008176329 0.00095281895 0.0012704907 0.00061065
000340 f2 55 3f 3b b3 b7 24 bb 5d 30 9d ba d9 03 6c bb
       0.0029195515 -0.0025133907 -0.0011992563 -0.0036013036
000350 cc bd af bb fc 65 a3 3b 5b 41 a6 3b 62 4a b5 3a
       -0.0053632017 0.0049865227 0.005073709 0.0013831372
000360 16 9d 90 bb 39 a0 82 3b cf 13 3b 3b 9b de 8f 3b
       -0.0044132574 0.003986385 0.0028545742 0.0043905503
000370 8c 89 fe 3a 52 75 33 ba dc 48 ed 3b 91 a8 9c 3a
       0.0019419654 -0.000684579 0.0072413515 0.0011952092
000380 c8 32 0d bb 79 60 21 3b 6d 74 4f 3a 7b 6c 78 3b
       -0.002154516 0.0024624153 0.0007913772 0.0037906456
000390 23 bc 24 3b 7f 3a a8 ba 02 3a 0a 37 b3 1c 5f ba
       0.0025136552 -0.0012834816 8.238947e-06 -0.00085110514
0003a0 36 32 81 bb 37 ac 5f bb 3e 0f 6d 3b ac a3 1e 38
       -0.003942753 -0.0034129748 0.0036172415 3.7822567e-05
0003b0 1b 16 ba ba 8e c8 23 bb df ed 56 3b f0 17 2f 3b
       -0.0014197262 -0.0024991366 0.003279559 0.0026717149
0003c0 3e 45 66 3a 5e 83 ba 38 bd ca 38 3b fe a5 92 ba
       0.00087841216 8.89364e-05 0.0028197013 -0.0011188386
0003d0 82 36 95 3b d5 dd 81 3b e2 a2 a6 bb 14 c6 82 bb
       0.004553617 0.003963212 -0.005085335 -0.003990898
0003e0 63 22 e5 b8 c5 9b 23 3b b8 52 c0 3a 45 37 90 3b
       -0.00010925976 0.0024964672 0.001467309 0.00440112
0003f0 d0 43 b1 bb 15 6a 8f 3b 71 e9 83 3a d0 09 8e 3b
       -0.005409695 0.0043766596 0.0010064078 0.004334666

net.2.linear.bias f4 [256]
000000 cd d7 9c bc 39 39 1b bc 5d f5 a1 3c 76 ef 26 3b
       -0.01914587 -0.009474092 0.019770319 0.002547232
000010 0f 06 64 bc 70 c9 4c 3d f2 21 66 bd a1 32 79 bd
       -0.01391746 0.049996793 -0.056184717 -0.0608393
000020 46 53 fe bc 42 9b 00 bd d1 d3 38 bd 19 c1 b2 bc
       -0.031045567 -0.031398065 -0.04512388 -0.021820592
000030 b0 9b 68 bc e0 96 b0 ba d5 5c ec bc a0 44 26 bd
       -0.014197275 -0.0013472699 -0.02885286 -0.04059279
000040 c8 2b 16 3d bf 2a a9 3c d7 09 a9 bc ef 22 8a 3c
       0.036662847 0.020650266 -0.020634575 0.01686236
000050 31 b6 da bb 40 2f 0d 3d 6a 68 36 bd e5 58 02 3d
       -0.006674551 0.03446889 -0.04453317 0.031823058
000060 fa 5d 33 3d df 32 48 3d 72 dd 51 3d 20 4a 5b bd
       0.043790795 0.04887664 0.051236577 -0.053537488
000070 62 a7 26 bd 0e 98 56 3d e4 d3 42 3d 43 8d 0d bd
       -0.040686972 0.052391104 0.047565356 -0.034558546
000080 7b a7 45 3c c3 df 3a bd 52 e2 06 bd 74 a8 1f bd
       0.012063856 -0.045623552 -0.03293068 -0.03897901
000090 06 6b b7 bb 84 f7 f7 bc 43 67 af bc ba 88 41 bd
       -0.005597475 -0.030269392 -0.021411544 -0.047249533
0000a0 49 bf 82 bc 32 39 1e bd 8d 60 54 bd 37 1b 05 3b
       -0.015960352 -0.038628764 -0.05184989 0.002031041
0000b0 3c ab 38 3d a9 a1 3e 3d e7 fc 0b bd 37 91 38 bd
       0.045085177 0.04654089 -0.034176733 -0.045060363
0000c0 d3 a1 24 bd 35 0a cd 3c 2e 33 43 bd ca 6f b5 3b
       -0.04019339 0.025029281 -0.04765623 0.005537008
0000d0 42 02 2c bd 4a 6e d7 3c bf b4 e1 bc f6 cf aa bc
       -0.04199434 0.026297707 -0.027552007 -0.020851117
0000e0 2c 2d 10 bd 26 3a 69 3d af fb 26 3d e6 1b f5 bb
       -0.03519933 0.05694022 0.040767368 -0.0074801324
0000f0 f2 50 0d bd ef d4 28 3d b3 4e 3b bc 1d 0e 36 bd
       -0.034501024 0.041218694 -0.011432338 -0.044447053
000100 cf 0e 4e bd 69 2e 5e 39 dd f0 7a bd ee e1 f9 bb
       -0.05030709 0.00021188859 -0.06126486 -0.00762581
000110 c0 90 04 3b 0b 3a fa 3c c7 97 33 bd 1b e2 42 bb
       0.002022788 0.030545255 -0.043845918 -0.002973682
000120 34 4b 5c 3c 98 24 28 bc 35 87 4b 3d 3c cd 7a bc
       0.013445664 -0.010262631 0.04968949 -0.015307721
000130 2d 42 3a 3d b5 01 5d bc 76 0d 29 bc f5 7b 17 3d
       0.045473266 -0.0134891765 -0.010318151 0.03698345
000140 b2 04 9f 3c 89 b9 12 3d a2 3c 80 bd 44 12 5b 3d
       0.019411419 0.03582147 -0.06261565 0.053484216
000150 ba fa 02 3c df 76 d3 3c 24 6b 3d 3d a2 dc 8c bc
       0.007994348 0.025813518 0.046244755 -0.01719505
000160 b7 1f 7a bd c5 45 96 bc 2f de bb 3c a3 5f 7c 3d
       -0.061065402 -0.018343816 0.022933094 0.061614644
000170 42 b3 a9 3c 4c b0 2b bd 80 5a 7c bd 20 1a 21 bd
       0.02071536 -0.041916177 -0.061609745 -0.039331555
000180 83 05 50 bd 10 00 de bc 50 ae 19 bd 94 11 74 bd
       -0.050786506 -0.02709964 -0.037519753 -0.059587076
000190 dc 37 65 bd d1 95 25 3d 58 7a d8 3c 00 78 69 3d
       -0.055961475 0.04042608 0.026425526 0.056999207
0001a0 40 56 c4 bb 40 72 15 3c 36 a8 16 bc fa 61 bd bc
       -0.005991727 0.009121478 -0.009195378 -0.023118008
0001b0 52 5e 2f 3d 81 ca c0 bc b7 dc 80 bc cf 5e 6a bc
       0.04281456 -0.023534061 -0.015730245 -0.014304831
0001c0 c0 d7 9c 3c a7 d9 8c bc fc 11 11 3d 95 2d 8b bb
       0.019145846 -0.017193628 0.03541754 -0.004247377
0001d0 49 8f 21 3d d0 73 b0 bb 6e ae 55 3d 42 12 65 bd
       0.039443288 -0.0053848997 0.052168302 -0.055925615
0001e0 1e 18 23 3d fa 25 2e 3c 74 23 06 3d be 84 3f bd
       0.03981792 0.0106291715 0.032748654 -0.046757452
0001f0 3d a6 35 3d 9e a9 c0 bc dd e8 1c 3d 57 74 6e bd
       0.04434799 -0.02351838 0.038308013 -0.05821642
000200 3b 40 01 3d 3b 40 3f bd ef 3c 60 3d 9a 0a 1e bd
       0.031555396 -0.046692114 0.05474561 -0.03858433
000210 f1 99 5b bb 21 0c ed 3c 96 b8 20 bd 92 8e 11 3c
       -0.0033508504 0.028936448 -0.039238535 0.008884089
000220 cf 03 a1 3c 3d 92 5d 3c 65 ed 9c 3c c3 6e 1a bd
       0.019655136 0.013523635 0.019156167 -0.037703287
000230 51 a4 80 3d 96 96 a9 3c a5 04 24 bd c1 8d 6f bc
       0.06281341 0.020701688 -0.040043492 -0.014621199
000240 4c 6e 3c 3d ca 34 79 bc ae 42 be bc 4b 74 be bc
       0.046003625 -0.01521034 -0.023225155 -0.023248812
000250 d0 e6 2b 3d 3c 34 d8 3c c7 c9 cc bc 38 75 60 3c
       0.041968167 0.026392095 -0.024998559 0.013699822
000260 73 c7 4a 3b 45 72 14 bd 9a 56 53 bd 1a 6f 53 3c
       0.0030941635 -0.03624179 -0.05159626 0.012904907
000270 e0 96 85 bc 67 60 15 bd ab 45 ce 3c e2 ce 44 bc
       -0.016307294 -0.03646889 0.025179705 -0.012012215
000280 65 40 a8 bc 9f 61 4c 3d cc 81 65 3d a2 17 43 3d
       -0.020538518 0.049897786 0.056031987 0.04762996
000290 1e f3 b8 bb da 6f ae bb bf af 68 bd 18 f7 82 bc
       -0.005644216 -0.0053233923 -0.05680823 -0.015986964
0002a0 9a 64 e3 bc 0d c9 db bc 19 90 2f 3d cf ad 6d 3d
       -0.027757932 -0.026829267 0.04286203 0.058027085
0002b0 c9 a7 18 3c 60 7a 3b 3d 3a e8 fa bc 6b 7d 4b bd
       0.009317347 0.045771003 -0.030628312 -0.049680155
0002c0 cc 78 23 3c 59 a2 39 bd d1 ff 6f 3d d2 f0 cd bc
       0.009977531 -0.045320842 0.058593575 -0.025139246
0002d0 4d d6 48 bd ec 2d 5e bc 56 fe 8c bb 01 7a 6b 3d
       -0.0490325 -0.013560753 -0.00430278 0.0574894
0002e0 09 94 3d bc da 53 25 3d 7d 05 11 bd 6c 5b e0 3c
       -0.011570939 0.04036317 -0.035405625 0.027387343
0002f0 7d e1 28 bd 7e 25 74 3d 7b 2f e9 ba 43 95 7b bd
       -0.041230667 0.059606068 -0.001779064 -0.061421644
000300 6c 88 4a 3d 5f e7 56 bd 7f 18 f0 3c 60 ba 36 3d
       0.04944651 -0.052466746 0.029308556 0.044611335
000310 04 62 7e bd 15 00 bf 3c 5f 77 ed 3c f5 06 7c 3d
       -0.062105194 0.023315469 0.028987585 0.061530072
000320 80 62 39 3d b5 2e 87 bc c3 46 06 bc 34 68 28 3d
       0.045259953 -0.016501764 -0.008195582 0.041115
000330 e9 15 6b bd b9 ba 19 bc e3 ec 4b bd e4 c1 0e bb
       -0.057393942 -0.009382897 -0.04978646 -0.0021783048
000340 ca 97 25 bd 1d e1 86 3a 07 03 01 3c dc a4 3a bd
       -0.04042796 0.0010290478 0.007874257 -0.04556738
000350 2d b9 8b bb 20 42 14 3d 29 be 5c 3d c2 80 40 3d
       -0.004264018 0.036195874 0.05389229 0.046997793
000360 72 e7 80 3d 7b d4 bb bb ab 3e 6a bd b2 38 83 bc
       0.06294145 -0.0057321168 -0.05718867 -0.016018245
000370 c5 1e 03 bd 08 76 e5 3b b6 19 ff 3b 34 04 40 bd
       -0.032011766 0.007002596 0.0077850474 -0.04687901
000380 4d 99 20 bd 8e 53 a0 bb a3 fd 04 3d c2 03 03 3c
       -0.0392087 -0.004892773 0.03246845 0.007996501
000390 83 69 21 bc 29 eb 8e 3b 36 b8 00 3a 52 ca 89 3b
       -0.009851816 0.0043615294 0.0004910262 0.0042050267
0003a0 4c 49 0f 3c 41 f9 10 bd 3c f6 09 3d c2 91 40 3d
       0.008745503 -0.035393957 0.033682093 0.047014005
0003b0 04 f3 fc 3c e9 5d 63 bb 2a b8 b4 bc 80 83 23 bc
       0.030877598 -0.0034693426 -0.022060473 -0.0099800825
0003c0 bd 3c 18 3c ea ec 26 bd de 6c 60 3d e5 e8 04 bd
       0.009291825 -0.040753283 0.054791324 -0.032448668
0003d0 e8 8b 07 bd 8f a4 80 bc 05 55 39 bd 46 de 63 3d
       -0.03309241 -0.015703468 -0.045247097 0.0556319
0003e0 d3 e4 3f 3d aa 28 4b bd 65 d6 0a 3d 59 38 18 bc
       0.046849083 -0.049599327 0.03389587 -0.009290778
0003f0 76 80 4f 3b 84 99 79 bc f1 bb 26 bd 94 a5 2e 3d
       0.0031662262 -0.015234355 -0.04070658 0.042638376
